model/80/nn_1hid512_sgd_BCE.pth (torch, 36319 bytes, 3 tensors)

hidden.weight f4 [512, 15]
000000 9e 5f e3 c9 d3 72 1e ca c6 62 79 c6 b0 e1 7f c9
       -1.8626438e+06 -2.5960208e+06 -15960.693 -1.048091e+06
000010 1a a9 af c6 03 75 fa c9 6f 17 4a c4 32 36 ed c3
       -22484.55 -2.0517444e+06 -808.36615 -474.4234
000020 01 2c ed c3 3f 0d 16 3e 2b 21 f4 c5 67 f4 b5 3d
       -474.34378 0.1465349 -7812.146 0.08884507
000030 0d 16 a2 c5 4a 07 3d c2 f2 2d 9b c5 e0 28 ef ca
       -5186.7563 -47.25712 -4965.743 -7.836784e+06
000040 5b a9 26 cb 05 3f 83 c7 8c 55 87 ca 0a ca b8 c7
       -1.0922331e+07 -67198.04 -4.43463e+06 -94612.08
000050 6b c3 03 cb 9a 90 54 c5 08 88 f9 c4 f3 7e f9 c4
       -8.635243e+06 -3401.0376 -1996.251 -1995.9672
000060 5c 12 26 be e0 63 00 c7 5e 66 fa bd 8a 7e aa c6
       -0.16217941 -32867.875 -0.12226556 -21823.27
000070 5c 94 47 c3 d0 37 a3 c6 b6 2e df bf 24 63 06 c1
       -199.57953 -20891.906 -1.743613 -8.399204
000080 90 d7 8d 3d a5 07 a7 be dd 30 3d be ff a1 a0 be
       0.06925881 -0.3262302 -0.18475671 -0.31373593
000090 79 fd 38 3e f6 17 c3 bc c7 1f b6 3c 58 b5 90 bc
       0.18065442 -0.023815136 0.02223195 -0.017664596
0000a0 b3 79 7a 3d 4f ad 40 3e 56 e7 54 3e f2 15 55 be
       0.061151218 0.18816112 0.20791373 -0.20809153
0000b0 a9 90 77 bd 14 c8 49 c9 22 9d 8c c9 1d 39 dd c5
       -0.060440693 -826497.25 -1.1519082e+06 -7079.139
0000c0 c6 29 e2 c8 58 e2 1b c6 50 51 5e c9 02 5f b3 c3
       -463182.2 -9976.586 -910613.0 -358.74225
0000d0 f7 a9 52 c3 fc b6 52 c3 a6 2c 4f 3e 4e a9 58 c5
       -210.66393 -210.71478 0.20231876 -3466.5815
0000e0 d8 a8 7c 3e ed d7 0f c5 94 49 a9 c1 d6 b1 09 c5
       0.24673784 -2301.4954 -21.160927 -2203.1147
0000f0 e2 33 78 c8 66 f5 ac c8 fa 2f 08 c5 9d 74 0c c8
       -254159.53 -354219.2 -2178.9985 -143826.45
000100 3d ba 3f c5 59 8a 88 c8 93 63 dc c2 3f 58 81 c2
       -3067.64 -279634.78 -110.19448 -64.672356
000110 5a f7 80 c2 35 5c 1c bd 1a 3c 85 c4 27 53 28 be
       -64.48311 -0.038173873 -1065.8782 -0.1643797
000120 2f e6 30 c4 27 0c d3 c0 7a 64 29 c4 a3 84 ea c8
       -707.5966 -6.5952334 -677.56995 -480293.1
000130 42 6d 23 c9 95 b0 80 c5 15 b8 84 c8 ce 2c b5 c5
       -669396.1 -4118.0728 -271808.66 -5797.6006
000140 b5 12 01 c9 60 3d 50 c3 32 38 f4 c2 70 36 f4 c2
       -528683.3 -208.23975 -122.10976 -122.10632
000150 a7 52 fd 3c 05 c7 fb c4 5c e4 6a be 31 2c a7 c4
       0.0309232 -2014.2194 -0.22938675 -1337.381
000160 60 46 41 c1 4b 13 a0 c4 bb b6 e2 c7 4d fa 1d c8
       -12.079681 -1280.6029 -116077.46 -161769.2
000170 fa b7 78 c4 27 40 80 c7 46 17 af c4 68 d7 f8 c7
       -994.87463 -65664.305 -1400.7273 -127406.81
000180 5c dc 48 c2 45 af ed c1 18 5d ed c1 57 34 52 3e
       -50.215195 -29.71058 -29.670456 0.20527779
000190 a7 81 f3 c3 05 67 76 3d 69 8e a1 c3 9c 4b 3e c0
       -487.0129 0.06015684 -323.11258 -2.9733648
0001a0 d7 ba 9a c3 26 c1 8e bf 03 51 86 bf 15 ef d2 bf
       -309.4597 -1.1152694 -1.0493473 -1.6479212
0001b0 21 45 6b c4 aa 1a c9 be d1 e9 d1 c2 36 4a 74 be
       -941.08014 -0.39278156 -104.95667 -0.23856434
0001c0 2f 4d a7 3d 96 2f 58 3e 2f 78 93 bd 61 a6 4d 3e
       0.081690185 0.21111903 -0.072006576 0.20083
0001d0 b7 a6 c1 3d 15 14 50 3d 7d e3 41 3e 90 33 37 3e
       0.094556265 0.0508004 0.18934436 0.17890763
0001e0 5b f0 87 c9 27 76 bd c9 ba 33 15 c6 b3 e1 19 c9
       -1.1136114e+06 -1.5520689e+06 -9548.932 -630299.2
0001f0 6d 10 52 c6 09 c2 95 c9 07 a8 f1 c3 12 e8 8d c3
       -13444.106 -1.2268171e+06 -483.3127 -283.81305
000200 09 e8 8d c3 05 9e 1a bd 3a f4 91 c5 54 d4 05 3e
       -283.81277 -0.037748355 -4670.5283 0.13069278
000210 75 ce 41 c5 dc e5 e4 c1 c4 8d 39 c5 8e f6 ac ca
       -3100.9036 -28.612236 -2968.8604 -5.667655e+06
000220 33 10 f1 ca 95 d1 3d c7 ac 95 43 ca eb a3 85 c7
       -7.8991615e+06 -48593.582 -3.204459e+06 -68423.836
000230 7a 95 be ca 99 b9 19 c5 2c 73 b4 c4 ae 72 b4 c4
       -6.245053e+06 -2459.5999 -1443.5991 -1443.5837
000240 5a 3a 8d ba ca b4 b9 c6 91 96 65 be b0 9a 76 c6
       -0.0010774836 -23770.395 -0.22420718 -15782.672
000250 8f 70 10 c3 06 16 6c c6 f4 28 f2 bf 3a 2b 2e c0
       -144.43968 -15109.506 -1.8918748 -2.7213883
000260 dc c5 b7 3d bc b8 42 bd 32 6f 50 be 51 dd 83 be
       0.089732856 -0.047539458 -0.20354918 -0.2575479
000270 d8 1c cd bd 9f f5 4e be 27 21 61 3d bb 4d 38 3e
       -0.10015267 -0.20210885 0.054963257 0.17998402
000280 a6 75 35 3e 70 d6 11 be c5 b1 3d be a6 60 3c 3e
       0.1772066 -0.14241958 -0.18524845 0.18396243
000290 24 db 60 be 46 18 ca c0 8c e4 31 c1 79 ba d9 c0
       -0.21958596 -6.315463 -11.118298 -6.804013
0002a0 bf 81 7d c5 62 da ba bf bc 01 b6 c2 fe d3 87 be
       -4056.1091 -1.4597895 -91.00339 -0.26528925
0002b0 8d eb 5a 3e 1c 82 3e be c7 3c 72 be bc ea 17 be
       0.21378918 -0.1860432 -0.23655997 -0.14835638
0002c0 8a 00 33 bb 66 b9 0c bc c6 d9 97 3d 9f 77 80 3d
       -0.0027313554 -0.008589124 0.07414584 0.06272816
0002d0 46 14 51 cb 14 b3 91 cb 7f 7b e5 c7 c3 ab ec ca
       -1.3702214e+07 -1.9097128e+07 -117494.99 -7.7552335e+06
0002e0 1d 8c 21 c8 c5 61 66 cb 1f d3 b9 c5 4f 1f 5a c5
       -165424.45 -1.5098309e+07 -5946.39 -3489.9568
0002f0 5b 20 5a c5 58 5c e6 3c 6d 7c 60 c7 d7 b9 90 bd
       -3490.0222 0.028120205 -57468.426 -0.07066696
000300 ec 0c 15 c7 2d 8f ae c3 2f b0 0e c7 5f e8 3d cb
       -38156.92 -349.11856 -36528.184 -1.2445791e+07
000310 f4 56 84 cb 0b 6f d0 c7 8f e9 d6 ca c7 bb 12 c8
       -1.7346024e+07 -106718.086 -7.0422475e+06 -150255.11
000320 e0 40 51 cb 3d c8 a8 c5 a8 1c 46 c5 e3 1b 46 c5
       -1.3713632e+07 -5401.03 -3169.791 -3169.743
000330 a5 3b da bc be e6 4b c7 1f 20 18 3d 0d 62 07 c7
       -0.026639769 -52198.742 0.037140008 -34658.05
000340 20 7a 9e c3 cb 9a 01 c7 8a 23 00 be 63 7e 6e bd
       -316.9541 -33178.793 -0.12513557 -0.058226
000350 de f6 4f 3d 45 98 86 bd d8 e1 44 bd de 90 2d be
       0.05077254 -0.06572012 -0.048066944 -0.16949794
000360 aa af 81 bd d2 f8 79 bd 45 a7 81 be 13 30 74 be
       -0.063323334 -0.06102831 -0.2532293 -0.23846464
000370 c9 8c e3 3d b4 64 5e be 87 8c 26 3e b6 ad ba bc
       0.11110837 -0.21718103 0.16264544 -0.02278791
000380 ed 59 16 be af c6 91 c8 0b 2b cb c8 87 fc 1f c5
       -0.14682741 -298549.47 -416088.34 -2559.783
000390 7c fe 24 c8 73 3a 61 c5 74 72 a0 c8 97 cb 01 c3
       -168953.94 -3603.653 -328595.62 -129.79527
0003a0 97 d2 97 c2 ad 91 98 c2 9c aa 5c be 8b 8b 9c c4
       -75.91131 -76.28452 -0.21549457 -1252.3607
0003b0 42 62 f9 3a 99 cd 4f c4 8d f9 ee c0 db fd 46 c4
       0.0019026475 -831.21246 -7.4679627 -795.9665
0003c0 5e fc c0 bf 7a dc 5a c0 0d c9 09 bf 49 10 46 c2
       -1.5077016 -3.4197068 -0.53822404 -49.515903
0003d0 6a 87 5c bf 3b 56 16 c4 fa 8c 56 bd 7f 3f 7f 3e
       -0.86144125 -601.34735 -0.05238054 0.24926566
0003e0 87 68 65 3e 27 ae 2e be 0b f8 2d bd 0a eb 9d 3c
       0.22403155 -0.17058621 -0.04247288 0.019277114
0003f0 1a 15 5c be 87 7f 1a 3e 88 d8 b0 bd 8c bf 14 cb
       -0.21492425 0.1508771 -0.0863505 -9.748364e+06

hidden.bias f4 [512]
000000 79 d6 3c c2 3c 94 47 c3 b2 2e 37 3e 16 9d a7 c1
       -47.209446 -199.57904 0.17888907 -20.951702
000010 65 52 d1 c0 c2 7f 40 c1 ae 91 33 c0 c1 4b 0c bd
       -6.541308 -12.031191 -2.8057666 -0.034251932
000020 da 00 e1 c1 c8 19 10 c3 24 22 19 3e 3b 5f 4e 3d
       -28.125416 -144.10071 0.1495443 0.050383788
000030 7c 7d ae c3 50 91 9e c3 ff bb 50 3e d7 94 f9 c0
       -348.98035 -317.13525 0.20384215 -7.799419
000040 21 b8 42 3d db 14 78 c3 4a b8 cf 3c c3 3d 21 c3
       0.04753888 -248.08147 0.02535643 -161.24126
000050 3c b6 98 bc c9 f3 41 c1 61 c7 87 be 80 58 1c c3
       -0.018641584 -12.122018 -0.26519302 -156.3457
000060 f1 9d bd 3b 56 7f f2 c1 51 e8 ce c1 8f 51 10 be
       0.0057866503 -30.312176 -25.863436 -0.14093612
000070 48 de 0d 3d 8f 25 06 3e 72 2f 31 bf fe 98 96 bc
       0.034635812 0.13100265 -0.6921302 -0.0183835
000080 d1 b9 79 c3 ae a2 10 c1 f7 92 eb bd 3a 4d 2f be
       -249.72585 -9.039717 -0.11502641 -0.17119303
000090 33 94 15 c3 e2 e1 57 3e e1 87 21 be fa f2 06 3e
       -149.5789 0.21082261 -0.1577449 0.13178626
0000a0 df 3d a2 c2 da 8b 02 c2 52 a5 f2 be b5 fb 59 c3
       -81.12084 -32.636574 -0.47391754 -217.98323
0000b0 f8 31 48 be cd de 82 be 6e 01 e2 be 4a 01 4c be
       -0.19550312 -0.25560609 -0.44141716 -0.19922367
0000c0 f4 94 f9 c1 c1 2e 70 3e 4d c2 e0 c1 1b 45 0e be
       -31.197731 0.23455335 -28.094873 -0.13893549
0000d0 d4 29 8a 3d 64 f6 83 bd 4f 4f 68 3e 36 8a a9 c3
       0.06746259 -0.0644348 0.22686504 -339.07977
0000e0 36 d9 28 be f9 97 59 c1 72 1e 61 c3 b2 88 66 3e
       -0.1648911 -13.599603 -225.11893 0.22513083
0000f0 8b 0b 7b c3 d8 fe 3b bd 7d 12 bd c1 78 9c d7 3d
       -251.04509 -0.045897335 -23.634027 0.10527891
000100 87 ba 70 3e b7 53 d0 c1 5f 20 65 3e 35 db c4 bd
       0.23508655 -26.040876 0.2237563 -0.09612123
000110 c0 70 6a 3d 31 59 39 c3 96 24 61 be 63 77 fd c0
       0.057236433 -185.3484 -0.21986613 -7.9208236
000120 51 1c 96 bd a5 8e e7 3d a9 1d 6a bd df 73 51 3e
       -0.0732962 0.11306504 -0.057157192 0.20454358
000130 f0 d2 80 be bc a3 a3 c3 3e 4d 68 3e 1b 11 e5 c1
       -0.25160933 -327.27917 0.22685716 -28.633352
000140 50 50 4a c3 0a 08 37 c1 04 62 80 be 44 fc 86 c1
       -202.31372 -11.439463 -0.2507478 -16.873177
000150 c4 53 6a be db 78 13 c3 25 04 64 c1 b0 21 c3 c2
       -0.22883517 -147.47209 -14.251012 -97.565796
000160 0f 24 0e 3d ad 6e 8a bd da f4 11 3d 1e 0c 15 c1
       0.034702357 -0.06759391 0.0356339 -9.315458
000170 ba 40 0d 3e 18 83 22 be e5 d8 92 3d ff 94 a3 c1
       0.13794222 -0.15870321 0.071702756 -20.447752
000180 ec 46 0a c3 5e e1 d4 3d 9e 7d 1b 3e a8 af 11 c2
       -138.27704 0.10394548 0.15184638 -36.42154
000190 37 63 69 c2 e8 46 8a c3 9e ab 5d be 45 b5 3a c3
       -58.34689 -276.55396 -0.21647498 -186.70808
0001a0 43 4d 10 3e ad c8 d1 bb c1 22 ac c1 db 56 82 c2
       0.14091973 -0.0064020962 -21.51697 -65.16964
0001b0 cf ff 45 bf 99 29 7b 3e 49 ab 5d bc 3b 12 c2 c1
       -0.7734346 0.24527587 -0.013529607 -24.258902
0001c0 75 d7 b9 3d 40 b6 da bd 7f c8 c5 bd f2 5f b1 3c
       0.09074298 -0.10679293 -0.09657382 0.021652196
0001d0 e2 ce be bd c5 77 b9 c3 da 05 1c 3d 03 9a ee 3d
       -0.093168035 -370.9357 0.038091518 0.11650469
0001e0 b1 ad 45 bc fb 54 a3 c3 2b 02 d0 c0 92 91 7a be
       -0.012065337 -326.6639 -6.5002646 -0.24469593
0001f0 21 37 b2 3d 04 87 a5 c3 4c b0 be c1 d9 37 b3 c3
       0.08701921 -331.0548 -23.836082 -358.4363
000200 8e ad 3b c1 fb 55 e0 c1 5e 94 83 bd e7 77 dc 3c
       -11.729872 -28.041983 -0.06424783 0.026912643
000210 69 5c 21 c3 3c 55 ac c3 1c 9a b2 c3 df cd 8d c3
       -161.36098 -344.6659 -357.20398 -283.60837
000220 26 cf a0 c1 b1 c8 6e be 06 45 37 be 28 98 03 be
       -20.101147 -0.23318745 -0.17897424 -0.12851012
000230 f6 1b 1c 3d bb e8 3c bf bf b5 90 c2 8d 62 91 bc
       0.038112603 -0.7379262 -72.35497 -0.017747188
000240 c5 26 c0 c3 26 46 06 c1 fa 9d 1c bf a7 19 00 c1
       -384.3029 -8.392126 -0.61178553 -8.006263
000250 c6 82 bc bd 8a 68 97 c3 db ae 2b 3d 05 75 54 c1
       -0.092046306 -302.8167 0.041914802 -13.278569
000260 1e 7e 0f be 42 13 de c1 07 8d 95 c3 e6 8e d6 c0
       -0.14012954 -27.759403 -299.10178 -6.7049437
000270 b0 39 4f c0 1d 6f 01 3e 2a 88 5f 3d ee 37 14 be
       -3.237896 0.12640043 0.054573216 -0.1447446
000280 79 49 17 bf 73 07 27 be 56 6d 01 3e 47 24 1c c1
       -0.59096485 -0.16311435 0.12639365 -9.758857
000290 e5 8c df c2 27 1c 9d bd c5 c7 e8 be 40 6f 2d be
       -111.775185 -0.07671385 -0.45464912 -0.1693697
0002a0 3b e6 36 3e b5 96 b2 c3 6b 2e 51 3d d2 4e 9b c1
       0.17861263 -357.1774 0.05106966 -19.413486
0002b0 2e 4b 3e be 78 46 ee 3d c5 8b db bd 8c 77 ab c2
       -0.18583366 0.116345346 -0.10720018 -85.73349
0002c0 6e 39 f7 3c 74 3e f8 3c 4f a7 a6 c3 d7 7e 03 c3
       0.030178752 0.030303217 -333.3071 -131.49547
0002d0 63 a8 e1 3a 0b 81 49 be 66 19 96 bd 9e 3e 14 3e
       0.0017216321 -0.19678132 -0.07329063 0.14477012
0002e0 2a 9a 43 3e ba 96 1a be c1 af fa 3d c3 aa 07 be
       0.19101778 -0.1509656 0.12240554 -0.13248734
0002f0 a4 e5 5b be 6f f2 98 be e2 a7 2f 3d ab 63 65 c0
       -0.2147432 -0.29872462 0.042884715 -3.5842083
000300 87 ce 6c 3d b4 bb 7c be d7 5e 91 c3 4f 34 41 bd
       0.057814147 -0.24680978 -290.74094 -0.047169026
000310 c1 cf 14 bc 59 74 ca c2 0a 60 7d be b9 dc 67 3e
       -0.0090827355 -101.22724 -0.24743667 0.22642793
000320 5a 25 96 c2 4b f5 51 3e a3 cb bd be d1 b1 68 bc
       -75.07295 0.20503728 -0.37069425 -0.014202551
000330 be 54 79 c1 e3 4d a1 3d 4e f6 71 3e 16 47 8a c3
       -15.583189 0.07876184 0.23629114 -276.55536
000340 40 85 d0 bc 56 3e a1 3d 42 6c 33 3e c3 c2 72 bd
       -0.025454164 0.07873218 0.17521766 -0.05926777
000350 36 06 ab 3c a6 90 48 be 63 34 57 c1 bc c3 ea c1
       0.020876985 -0.19586429 -13.45029 -29.345573
000360 74 cd 75 be 63 1c 25 c3 04 01 7f 3e 45 d3 94 c3
       -0.24004155 -165.11089 0.24902731 -297.65054
000370 74 72 8c bd bc e4 89 c3 5a 6d af c1 cd 0a 21 be
       -0.06857768 -275.787 -21.928394 -0.15726776
000380 ad 3e 61 3d 87 ef a6 c3 6a 35 a0 c0 87 9a 34 bd
       0.054991413 -333.8713 -5.0065203 -0.04409268
000390 e7 08 23 3e e9 72 0e bb 26 4b 74 bf 9a a3 69 be
       0.15921365 -0.0021735972 -0.9542717 -0.22816315
0003a0 3d dd a4 bd aa 55 1d c0 cf 8e 50 be 08 a9 8f be
       -0.0805001 -2.4583535 -0.20366977 -0.28058648
0003b0 f6 db b5 c3 06 52 4b 3e d7 79 03 3e 59 e9 3e 3c
       -363.71844 0.19855508 0.12839447 0.011652314
0003c0 95 c6 d9 3d ce 0d 0a 3d 72 9a bc be cf 2d f4 c1
       0.1063358 0.03370457 -0.36836582 -30.522367
0003d0 b0 20 1b be 38 8c 2f c2 ad 49 e7 bd 7b 05 0c 3e
       -0.15149188 -43.886932 -0.112933494 0.13673966
0003e0 40 45 1d 3e 0d c9 62 bc 63 f1 af c3 0c ac 48 3e
       0.15358448 -0.01384188 -351.88583 0.1959688
0003f0 cc d1 43 be 21 57 43 c3 30 25 bc 3d 53 94 80 be
       -0.19123 -195.34035 0.091867805 -0.25113162

output.weight f4 [1, 512]
000000 6e 7a 7d 49 44 17 f9 47 14 2f cc c0 cb 96 23 49
       1.0382469e+06 127534.53 -6.380747 670060.7
000010 f2 a5 ec 47 a7 2b 15 48 35 ae 0c 48 2b 42 bc c5
       121163.89 152750.61 144056.83 -6024.271
000020 8b 72 86 47 5c e5 ec 48 a9 f9 81 3f a6 be c1 c5
       68837.086 485162.88 1.0154315 -6199.831
000030 7a 7e 87 45 2f 8b a0 48 cc 66 a4 3c c4 d6 d3 47
       4335.8096 328793.47 0.020068549 108461.53
000040 8f a4 fe c4 40 ff 0e 48 c6 ae 74 c1 14 d5 61 47
       -2037.1425 146429.0 -15.292669 57813.08
000050 5b 39 26 c7 14 3e 1f 48 f8 be e4 45 3c 97 df 48
       -42553.355 163064.31 7319.871 457913.88
000060 8e 65 ca c6 ef 33 df 47 29 2c 3b 48 e9 f6 07 c7
       -25906.777 114279.87 191664.64 -34806.91
000070 1e f2 c4 c0 a1 74 83 c2 14 17 36 45 75 6b ea c5
       -6.1545553 -65.72779 2913.4424 -7501.432
000080 ae cf ac 47 db c5 c8 47 f6 1b 64 c5 3d ef 0a 3d
       88479.36 102795.71 -3649.7476 0.03391956
000090 19 23 f0 48 b4 a6 b1 c1 f5 ba 02 41 2f d3 d9 c2
       491800.78 -22.206398 8.170644 -108.91247
0000a0 9b 4b 9b 49 b8 8c 34 49 c7 69 94 43 48 ff 84 c6
       1.2721794e+06 739531.5 296.8264 -17023.64
0000b0 7f 09 2f c7 61 36 32 c7 15 bc 74 45 f7 96 9a 44
       -44809.496 -45622.38 3915.7551 1236.7177
0000c0 be 26 16 47 ad 20 ed c2 a9 1d 64 48 77 32 db c6
       38438.742 -118.56382 233590.64 -28057.232
0000d0 22 53 e2 c6 43 15 e2 c6 40 b4 06 c3 5a 0a 97 49
       -28969.566 -28938.63 -134.7041 1.2373232e+06
0000e0 e0 10 6b 48 f6 9d 24 48 a0 d2 f5 48 a5 99 15 bd
       240707.5 168567.84 503445.0 -0.03652348
0000f0 a3 96 07 49 d4 c3 53 c7 b3 1d a5 47 10 71 69 bc
       555370.2 -54211.83 84539.4 -0.014248148
000100 ac 1d 28 c4 29 25 42 48 ef 0b e2 c6 63 e5 97 c4
       -672.4636 198804.64 -28933.967 -1215.1683
000110 a7 7b ab bc bf c7 00 49 13 51 30 c6 bf 06 ba 46
       -0.020932985 527483.94 -11284.269 23811.373
000120 dc 10 63 c5 2f 98 e2 c6 2f 93 48 c5 5c a7 11 c7
       -3633.0537 -29004.092 -3209.199 -37287.36
000130 49 5a 82 c4 dd 47 af 49 a9 66 77 c4 ba 1d 26 49
       -1042.8214 1.4358996e+06 -989.60406 680411.6
000140 46 cb 03 49 b9 11 be 47 39 e4 41 3c 82 11 7a 48
       539828.4 97315.445 0.011834198 256070.03
000150 7b f5 2a c7 f0 65 5a 49 35 c6 62 48 87 77 98 49
       -43765.48 894559.0 232216.83 1.2490089e+06
000160 f7 85 9c c6 30 af 04 c7 8a 0b 92 c5 24 31 21 48
       -20034.982 -33967.188 -4673.4424 165060.56
000170 d0 ac 78 c1 28 39 91 c6 49 44 51 c7 03 0d 0e 48
       -15.542191 -18588.578 -53572.285 145460.05
000180 51 3c a2 49 f8 01 33 44 da ea 67 3c 14 8d 83 48
       1.3290341e+06 716.03076 0.014155114 269416.62
000190 f4 1c a7 49 1f fd 70 48 31 f5 9f c6 84 38 ed 48
       1.3689905e+06 246772.48 -20474.596 485828.12
0001a0 b3 6d eb c6 9e ef 56 c1 df ae 37 48 0f 25 27 49
       -30134.85 -13.4335 188091.48 684624.94
0001b0 52 c7 54 48 00 08 57 c7 21 7c 43 45 46 d0 02 48
       217885.28 -55048.0 3127.758 133953.1
0001c0 d8 a8 87 c4 b4 08 80 c5 22 62 9f c0 a7 5f b7 c4
       -1085.2764 -4097.088 -4.980729 -1466.9891
0001d0 01 ec 92 43 df b6 38 49 d4 dc ce c2 ff b3 82 c5
       293.84378 756589.94 -103.431305 -4182.4995
0001e0 72 fe 9e bc f7 61 00 49 2b 49 47 48 7c 4c 0b c7
       -0.019408438 525855.44 204068.67 -35660.484
0001f0 80 12 2e bd 49 ab 3f 49 d4 e5 9b 46 41 aa a2 49
       -0.04249811 785076.56 19954.914 1.3325521e+06
000200 c9 3d 77 48 34 54 1a 48 b1 7b 44 c7 f1 91 d0 c5
       253175.14 158032.81 -50299.69 -6674.2427
000210 9f 08 09 c7 aa 5a 02 49 c7 88 99 49 3e 30 eb 48
       -35080.62 533930.6 1.2577529e+06 481665.94
000220 8f fd 39 48 af 19 61 c5 ca ed 15 c5 4e 54 66 c7
       190454.23 -3601.6052 -2398.8618 -58964.305
000230 d0 03 91 3b cf dc 4f 45 2a 11 64 49 f6 1e 1a c1
       0.0044255033 3325.8005 934162.6 -9.632559
000240 df b3 45 48 3a 13 a6 47 6a be 01 45 d6 bc 08 48
       202447.48 85030.45 2075.901 140019.34
000250 91 26 54 c5 87 1d 8f 49 a8 46 2e c0 96 43 b7 47
       -3394.4104 1.1724009e+06 -2.7230625 93831.17
000260 32 b0 ea c6 07 49 a1 47 dc 9d 8d 49 ed a1 bb 47
       -30040.098 82578.055 1.1601235e+06 96067.85
000270 f8 9e af 47 ca 56 2e 3d 2c 4d 9e 41 c9 05 84 c2
       89917.94 0.042563237 19.787682 -66.0113
000280 e2 05 60 44 ce f0 11 c7 3a 47 03 c7 2d f9 7b 47
       896.0919 -37360.805 -33607.227 64505.176
000290 e0 57 91 49 8f f5 1e c4 7c 79 e0 45 90 d8 a4 c4
       1.190652e+06 -635.83685 7183.1855 -1318.7676
0002a0 ff 76 92 c1 5a 2a 42 49 92 2e 3f c6 40 5a 00 48
       -18.308104 795301.6 -12235.643 131433.0
0002b0 dc 13 ef c4 ff 73 29 3d 22 e0 23 c2 bb b3 2e 47
       -1912.6206 0.041370388 -40.96888 44723.73
0002c0 7a 4e f7 c6 86 b0 15 c7 b4 98 fa 48 3c 29 7e 46
       -31655.238 -38320.523 513221.62 16266.309
0002d0 f3 84 d0 3c 05 2c cb c2 fa 0b 30 c7 67 f6 42 c7
       0.02545402 -101.585976 -45067.977 -49910.402
0002e0 76 ba 89 c5 28 84 52 c6 13 cc 4d c5 c3 c6 2d 3d
       -4407.3076 -13473.039 -3292.7546 0.042425882
0002f0 34 b8 02 c7 df 58 a4 45 63 d3 63 c5 99 57 d0 c4
       -33464.203 5259.109 -3645.2117 -1666.7374
000300 ad 61 89 c6 7c 44 25 c7 83 67 9a 49 75 65 bd 45
       -17584.838 -42308.484 1.2648804e+06 6060.682
000310 b5 0b 54 c7 f4 36 7f 49 26 8a eb c6 53 a8 a6 c2
       -54283.707 1.04535925e+06 -30149.074 -83.32876
000320 9d ff b6 47 73 e2 bf c4 39 01 a8 c5 8b 27 10 c6
       93695.23 -1535.0765 -5376.153 -9225.886
000330 4d 26 32 48 f8 2d 83 c6 dd 10 3f c2 f5 b8 c5 49
       182425.2 -16790.984 -47.766468 1.6197426e+06
000340 ff 6c 61 c2 d1 93 25 c7 ab d3 ce c4 c3 1c 26 bc
       -56.35644 -42387.816 -1654.6146 -0.010138693
000350 ea ae a5 c5 e2 83 5d c7 66 73 75 46 23 51 a2 47
       -5301.8643 -56707.883 15708.85 83106.27
000360 4a 29 0b c7 74 3f 7b 49 9f c7 1b c2 7e b9 1e 49
       -35625.29 1.02911125e+06 -38.944942 650135.9
000370 aa 3e c6 3c 1d 1a eb 48 7b 54 12 48 dd 40 68 c1
       0.024199802 481488.9 149841.92 -14.515836
000380 ce ad 93 c5 80 8a a8 49 c2 88 14 48 16 58 cd 45
       -4725.7256 1.380688e+06 152099.03 6571.0107
000390 13 3d 55 c6 65 67 58 c3 19 9b cf 47 a4 e1 c1 c4
       -13647.269 -216.40388 106294.195 -1551.0513
0003a0 58 f7 ca bc 6b af bc 47 63 d7 b9 c6 90 5a bb 43
       -0.024776146 96606.836 -23787.693 374.70752
0003b0 8c 45 43 49 6b db 9e c5 66 d9 af c2 51 de 7a 3f
       799832.75 -5083.4272 -87.92461 0.9799548
0003c0 1f 4c ca c6 d5 66 79 c5 da fc 1e 45 33 9c 12 48
       -25894.06 -3990.427 2543.8032 150128.8
0003d0 2c 3a 44 c6 77 ef 88 49 dc 28 7a c6 17 cc 04 c6
       -12558.543 1.1217749e+06 -16010.215 -8499.022
0003e0 1d 77 a9 c6 bf 25 cd bc 14 20 aa 49 12 44 f3 c1
       -21691.557 -0.025042413 1.3936665e+06 -30.408237
0003f0 76 71 49 c7 89 4c 1a 49 20 cf b0 c1 35 03 bb bc
       -51569.46 632008.56 -22.101135 -0.022828678
